images/cifar_net.pth (torch_old, 180342 bytes, 10 tensors)

conv1.weight f4 [6, 3, 5, 5]
00000000: 09d1 6fbc 5f34 da3d 2814 eabc 1939 b0bd
00000010: d1c2 b53d c2ef cd3a 77e5 7d3d 5cd3 ac3d
00000020: acf6 00bd 1dab 89bd 1730 a8bd 853e 923d
00000030: 19fa d8bd c391 0a3c edb0 d8bb 1e7b 0fbc
00000040: 6802 41bd 6942 e1bb b953 eabd 8bb0 113d
00000050: cad9 c93d d1a7 743d d682 ad3c 0b0e cb3d
00000060: d5c5 18bd 6937 81bd 2dc7 a9bd 996d c8bd
00000070: 76f0 2a3d d7ab cf3d 1bca 703b c4f1 243d
00000080: 6e03 c93c 0ce9 e73c a4db e5bb e884 46bc
00000090: c4a8 0f3d 681d 083d 21ef 39bd 4ff0 7d3d
000000a0: 51c4 7a3d 2544 95bd 43dd 813d 0abe 3e3c
000000b0: 431f bb3c 0f3e 73bc 31ba 4a3d 227a 65bd
000000c0: 020e 243d ad56 d9bb 5e43 ba3c daac 833c
000000d0: 52c0 b5bc 5f6f b4bd 58b7 db3d ed8d 0bbd
000000e0: b985 e1bd 2d77 85bd 3755 e33c 14c7 b93d
000000f0: 9ffb b7bd c379 ce3d 8644 58bd ad03 c93d
00000100: 3750 3cbd 8e12 413d 6a64 3dbd 8519 cabd
00000110: 5f39 2b3d a213 8c3d f633 b93d 2b6a ebbb
00000120: 729d 69ba 43b9 e5bd aff2 843d 00f2 a1bb
00000130: b80c 453d 83c5 c23d 2b3f d13d d06c 253d
00000140: ac1b d3bb d160 90bc 19e5 1b3d f084 9c3d
00000150: cffd 9abd aa4f c2bd e323 233d 4809 2cbd
00000160: 135b 193b 9be8 453c e64b 7dbd 760e ed3c
00000170: f9b5 abbd 81ca bb3d c0f5 ae3d 6951 ca3d
00000180: 57d5 99b9 ffe3 debd e6cf f9bc e8a9 7c3d
00000190: f043 e7bd 17ee c0bd 1df7 c2bc 53e2 e5bd
000001a0: 1752 903d 78d3 d33d e169 ccbd ce19 b2bd
000001b0: b2ba 1d3c 908c 82bd c3b8 c73d 2963 87bd
000001c0: 4fb7 393d 31c0 d53d ebb1 6cbd dfed d83d
000001d0: 7037 843d f8d2 5f3d 75a5 673d 970a 2c3c
000001e0: 953f f53b 5bda 813c 18d5 c8bc ddc8 343d
000001f0: 6d54 debc f22d 543c 3d8d d13d 3f1a c33d
00000200: a7af 52bd 83be 773d 4783 0abd 8172 a7bd
00000210: f811 223b 7362 d03d 9588 0a3d 8a64 cd3d
00000220: cfbb 133d 646d fb3c d54e 15bc 6afa 66bd
00000230: f34b 5bbc 3842 5cbd cb86 853d 993e cfbd
00000240: 674a 9ebd be25 d93c 5532 bf3d 35b1 d5bd
00000250: 69c8 bd3d f89d c0bd a1f2 723d 489c b23d
00000260: ca54 073d f367 55bc c177 2e3d 1b0e 803d
00000270: d257 adbd cca3 223d 70a1 b0bd d508 b83d
00000280: 37a4 c93d 764d 9cbc 8b9e a83d 8f27 6cbd
00000290: 97df c03c 43f2 5a3d 4068 2bbd caf0 ac3d
000002a0: 360c 85bd e2b0 21bd 8e01 babd 5d5c 8dbd
000002b0: 0110 66bc caf1 52bd 88d9 ba3c cfb8 a7bc
000002c0: e9bc a53d e7cf b6bc e4fb b33d 67f8 b2bd
000002d0: 6b27 58bd 323c d63d 287c ea3d bfe2 e1bd
000002e0: 079b a53d 1db6 e1bc 1ed4 db3d a982 39bc
000002f0: bd0a 90bd 2620 693d 2372 b4bd a0fd 843d
00000300: 76e3 1ebd a462 bfbc 6883 9eba 01ef 8bbd
00000310: 40c5 5ebc 81f2 cbbd 9f54 83bc a368 e03d
00000320: 0176 333d c604 963c b1a2 0fbd 8218 e33d
00000330: 764e b93d 0843 45bd 90eb dabc 8d9f a0bd
00000340: 2937 443d b789 abbd 544a cd3d 38b3 603c
00000350: 6663 c43d fc88 c2bc 34a3 693c 3bca 12bd
00000360: 7069 dabd 8d49 f4bc 8488 87bd b34a ab3c
00000370: c057 ac3d 57b7 72bd 22ce 87bb f049 0dbd
00000380: 6871 d7bd e4ab 4dbd 263b e8bd 64e0 a83d
00000390: 98df 9b3c 3a33 a6bb 6b73 743b dd33 133d
000003a0: c7cb 703c ee8b e6bd 0d79 dfbb 22e2 4abd
000003b0: 665f 97bd 4b09 c7bd 73a2 9fbd 476a be3d
000003c0: dbf0 0a3d de3d bdbd 4f7a e6bd 183a 5e3d
000003d0: b088 033d fde1 a4bc 4304 d6bb d342 c63d
000003e0: 21fc ba3d f1e8 123c 06fc 6ebd 02c1 153d
000003f0: f0ff 1abd 4c68 573d 56df 5f3d 0aed 72bd
-0.01463724 0.1065452 -0.028574064 -0.086046405 0.08875049 0.0015711712 0.061986413 0.08438751
-0.031485245 -0.067220904 -0.082122974 0.07140831 -0.10594577 0.008457604 -0.006612888 -0.008757381
-0.047121435 -0.006874372 -0.1144175 0.035568755 0.09855993 0.059730355 0.021180551 0.09914788
-0.037298042 -0.06309397 -0.08289943 -0.09786529 0.041733228 0.10140198 0.0036741558 0.04026963
0.024537768 0.028309368 -0.0070147086 -0.012116648 0.035073057 0.03323117 -0.045394067 0.061996754
0.06122238 -0.07288388 0.063410304 0.0116419885 0.022842055 -0.014846339 0.049493972 -0.056024678
0.04005242 -0.006632647 0.022737201 0.016073633 -0.022186432 -0.08810305 0.107283294 -0.034070898
-0.11011834 -0.065168716 0.027750595 0.09071174 -0.0898354 0.10081818 -0.052799724 0.09815154
-0.045974936 0.047136836 -0.04623834 -0.09868149 0.04180276 0.06839682 0.09043114 -0.007184287
-0.0008911706 -0.112169765 0.06491601 -0.0049421787 0.048107833 0.095103286 0.102171265 0.040386975
-0.0064425077 -0.01762429 0.03806028 0.07642543 -0.075679414 -0.09487851 0.039829146 -0.04200104
0.0023400232 0.012079383 -0.06183996 0.02893756 -0.08384318 0.09169484 0.08542967 0.09878809
-0.00029341385 -0.108833306 -0.030494642 0.061685473 -0.11292255 -0.09420412 -0.023799473 -0.112248085
0.070469074 0.10343069 -0.09981132 -0.08696328 0.009627031 -0.063744664 0.097520374 -0.0661071
0.045340832 0.10437048 -0.057786863 0.10592245 0.06455886 0.054644555 0.056554276 0.010500572
0.007484386 0.01585119 -0.024515674 0.04413687 -0.027139867 0.012950407 0.10232017 0.095264904
-0.051437046 0.06048442 -0.033816602 -0.08176137 0.0024729948 0.10175028 0.03382166 0.10028942
0.03606778 0.03069181 -0.009113033 -0.056391157 -0.013384807 -0.05377409 0.0651985 -0.101193614
-0.07729035 0.026507255 0.09335772 -0.1043419 0.09266741 -0.0940513 0.05931342 0.087212145
0.033039846 -0.013025272 0.042594675 0.062526904 -0.08464016 0.03970699 -0.08624542 0.089860596
0.098457746 -0.019079905 0.08233365 -0.057654914 0.023544116 0.053453695 -0.041847467 0.08444364
-0.0649647 -0.03947533 -0.09082328 -0.069023825 -0.014041902 -0.05150012 0.022808805 -0.020473866
0.080926724 -0.022315932 0.08788279 -0.08738785 -0.052771967 0.104607 0.11449462 -0.110295765
0.0808621 -0.027552659 0.107338175 -0.011322656 -0.07033298 0.056915425 -0.08810832 0.06493688
-0.038791142 -0.023362465 -0.0012093605 -0.06832696 -0.013596833 -0.09958363 -0.016031561 0.10957458
0.04381371 0.018312823 -0.035067264 0.11088659 0.09048168 -0.04815963 -0.026723653 -0.07842932
0.047904167 -0.083758764 0.100239426 0.013714604 0.09589271 -0.02374696 0.014260102 -0.035837393
-0.10664642 -0.029820228 -0.06617835 0.020909643 0.084151745 -0.059256878 -0.004144446 -0.03449434
-0.105196774 -0.050212756 -0.11339407 0.08245924 0.019027516 -0.0050720247 0.003730024 0.035938133
0.014697022 -0.11257158 -0.0068198503 -0.049532063 -0.07391243 -0.09718569 -0.077946566 0.092976145
0.033921104 -0.09240316 -0.11253797 0.05425462 0.032112777 -0.02012729 -0.0065312698 0.096807145
0.09130121 0.00896667 -0.058345817 0.03656102 -0.037841737 0.0525897 0.05465635 -0.05930809

conv1.bias f4 [6]
00000000: 883e 2fbc dcd1 a8bc 55b8 a43d a636 b33d
00000010: f44d 84bd e6d0 953d
-0.010696061 -0.020607881 0.08042971 0.08750658 -0.06460181 0.07315235

conv2.weight f4 [16, 6, 5, 5]
00000000: c75b e73b 2d88 023d 02c5 2f3d bc5c a63d
00000010: b90b 90bc 435d 9cbd 552a 10bc 2cdc 283d
00000020: 6d2a a4bd efbe 0f3d 7861 8b3d eeab 27bd
00000030: 48c8 9b3c 503d 30bd 7bb9 cdbc 00cc 56bd
00000040: 0114 213d f8b5 133d 88c9 f8bc c3ac 763d
00000050: ab14 7dbd 8eeb 3e3d 9e13 213d fc26 913d
00000060: 3ba6 79bb e7c9 923d 9ac7 fa3c cb75 4cbd
00000070: 3b04 903d 1b54 94bd e871 52bd 499c a53d
00000080: be8e 33bc 27fb 7d3d 7cec a4bd 02a2 643d
00000090: 62f0 a13c b3df bbbb 2a5f 87bb aad7 6a3c
000000a0: 9d10 a63d 3a1c aa3c 4ae0 21bd f1c9 313d
000000b0: 1d1e 94bc 42df f3bc ec3a 413d f135 353c
000000c0: f4a0 a63c 1174 92bd 2197 90bd 8c8c 9cbd
000000d0: a6e5 773d 3964 9abc 0f3f bd3c e9cf 81bd
000000e0: 6414 50bd 3127 b2bc e387 723d d2df 62bd
000000f0: 3281 91bc 887b a43d 7113 043d 4e95 bb3b
00000100: b569 9ebd 71a3 f0bb c0e5 1e3d 5944 ba3c
00000110: e817 6bbd 77f6 c438 c180 363c 4d27 99bd
00000120: de07 d4bc aa5b 943d cc51 42bd c15c 803d
00000130: e651 f3bb ee0b 86bd a346 62bc 3d90 1b3d
00000140: 8dc9 6fbd d71e 82bd ebe5 1b3d 4329 0f3d
00000150: 5277 a33d 3d5f a3bd 3052 933d 3d24 4a3d
00000160: 8222 103d 25ba 96bd 84ab 863d 70b8 9abc
00000170: e8ad 01bd 8492 3dbd 88f7 76bd c27f 973c
00000180: 44b5 46bd 00a5 5abd 4079 e4bc 1df3 043b
00000190: 589d 31bd 4c71 8abd d189 a43d 5f1c 86bd
000001a0: 421a d0bb 89d8 60bd a04d 33bc c58f 973d
000001b0: b7b6 62bd e4fe 32bd de7f 9a3d 45e3 96bd
000001c0: 9cc3 9fbd f2aa b0bc 02a3 66bd 0ebe 87bd
000001d0: 55f2 6cbd 6290 8ebd 4b89 a13d 9e32 6abd
000001e0: eafe 893d bdd7 943c 3cf3 91bd a96a 5fbd
000001f0: a527 8b3d 7278 88bd b504 94bd 3bd1 d43c
00000200: f016 6b3c 2dee 3a3d 8a91 823d 91e9 30bd
00000210: c43f 12bd d7a2 7d3d a996 bbbb a488 053d
00000220: d3c7 55bd bc64 953d 9dd1 883c 0bc0 2e3d
00000230: 608d 6e3b 5bd7 a5bd 5adb 513d d797 993d
00000240: 33a2 ffbc 3749 9cbd 96e0 7fbb 63e2 ba3c
00000250: 0ca9 47bc 3287 813d 61da 733d 2392 07bd
00000260: e33a c73c 8243 823c 8dfc ce3c a33e 5439
00000270: 6dcd 5cbb 4eba 953b 357a 993d b72a 903d
00000280: 711d f7bc 7617 91bd 4100 0ebd 7eb6 02bb
00000290: a5a0 913d 9ffb c7bc 7726 893b 7e63 4abd
000002a0: 22ed 17bd ba48 cf3c 740c 54bd cb3d 503d
000002b0: 03b9 95bd cbb9 403d e770 a53d 52a5 153d
000002c0: 5efc 60bd ca4a 343d f6e6 2ebd 1e39 ab3c
000002d0: 0bd6 9abc bb2a 72bd 3e69 343d 16d9 c4bc
000002e0: 3e18 21bd 2b0e 743d f1cb a0bd 1313 37bd
000002f0: 5921 40bd 144f 8bbd 535e 7b3c 493a e2bc
00000300: e996 193d c05f 81bd c375 073d 8863 883d
00000310: 6e64 af3c b248 abbc 40b2 a0bc 2f1c 14bc
00000320: 881a 96bd bb6c 62bd f410 023d 1e0e a3bc
00000330: 721e 933d f507 993b ff88 44bd 2b55 36bd
00000340: 0dc9 833c a281 dbbc c9b4 953c 6588 083d
00000350: da28 593d ddcc b93b 697e 6e3d 9937 d2ba
00000360: aae4 bfbc f698 d13c 5e46 863d 5130 76bd
00000370: 5e7a 5ebd 900b 553d ae30 f3bb d7f1 2f3c
00000380: 5ecf 32bc 7142 cd3c 19ad 6dbd 429f f03c
00000390: 1982 a3bc 2fb9 97bd be88 51bc 9ed0 7a3d
000003a0: bfa6 613c 1fa8 573d 66b5 a4bd b89d 5ebd
000003b0: 29eb 093c 1126 8c3c 7d2f a2bd 4f13 d53b
000003c0: 7826 83bc 16ed 203d b918 06bd 98de 76bd
000003d0: 87d1 8fbd d303 a03d debc aebc 1443 b33c
000003e0: 1cef 6d3d 593f 9cbd 1694 25bd b280 2abd
000003f0: f240 9abd 6ad0 27bc 4365 1bbd 0e5e 96bd
0.0070605013 0.03186815 0.04291249 0.081231564 -0.017583715 -0.07634976 -0.008799155 0.041225597
-0.080159046 0.035094198 0.068057 -0.04093545 0.0190164 -0.043027222 -0.025112858 -0.052440643
0.039325718 0.03606221 -0.030369535 0.060223352 -0.06178729 0.04661136 0.03932535 0.07087514
-0.0038093466 0.07167416 0.030612756 -0.049917024 0.07032057 -0.07242604 -0.05137816 0.0808645
-0.010959325 0.062007096 -0.08052918 0.055818565 0.019767944 -0.005733454 -0.0041312175 0.014333645
0.081086375 0.020765413 -0.03952054 0.043405477 -0.018080765 -0.029769544 0.047175333 0.011060224
0.02034042 -0.07151044 -0.070600756 -0.07643995 0.060521744 -0.018846618 0.023101358 -0.06338484
-0.050800696 -0.021747204 0.059211623 -0.055389233 -0.0177618 0.08031374 0.032245103 0.0057245856
-0.07735006 -0.0073437025 0.038793325 0.022737669 -0.057395846 9.391916e-05 0.011139096 -0.07478199
-0.025882658 0.07244046 -0.04744129 0.062676914 -0.0074255345 -0.06545244 -0.013810786 0.037979353
-0.058541823 -0.063535385 0.038061064 0.03495146 0.07981743 -0.0797715 0.071934104 0.049350966
0.03518916 -0.07359723 0.06575683 -0.018886775 -0.03165999 -0.046282306 -0.060294658 0.018493537
-0.048512712 -0.053380013 -0.027889848 0.0020286508 -0.043362945 -0.06759891 0.08034099 -0.0654838
-0.0063507864 -0.054894004 -0.0109438 0.07400469 -0.05535003 -0.043700114 0.0754392 -0.07367567
-0.078009814 -0.021565888 -0.0563078 -0.06628047 -0.057848293 -0.069611326 0.07887515 -0.05717718
0.06738074 0.018169278 -0.071264714 -0.05454508 0.06794671 -0.06663598 -0.0722746 0.025978675
0.01434873 0.0456373 0.063754156 -0.043191496 -0.035705343 0.061922874 -0.005724747 0.032601014
-0.05219252 0.07294604 0.016701514 0.042663615 0.0036400184 -0.080977164 0.05123458 0.07499664
-0.031205272 -0.07631152 -0.0039043776 0.022813028 -0.0121863 0.063246146 0.059534434 -0.03309835
0.024320072 0.01590133 0.02526691 0.0002024123 -0.003369178 0.0045693284 0.07494012 0.07039397
-0.030165406 -0.07084553 -0.03466821 -0.00199452 0.07110719 -0.024411974 0.0041854936 -0.04941129
-0.03709138 0.025303233 -0.05176969 0.05084018 -0.07310679 0.047052186 0.08078175 0.036534615
-0.054928176 0.044016637 -0.04270073 0.020901259 -0.018900892 -0.059122782 0.04404568 -0.024029296
-0.03932976 0.059583824 -0.07851399 -0.044695925 -0.046906803 -0.06802192 0.015342313 -0.027615683
0.037497435 -0.06317091 0.03307129 0.06659609 0.021410193 -0.020908687 -0.019616246 -0.009039923
-0.07329279 -0.055279475 0.03175445 -0.019904193 0.07183541 0.004670138 -0.047982212 -0.044514816
0.01608708 -0.026795212 0.018274682 0.0333332 0.053017475 0.0056701736 0.058226023 -0.0016038298
-0.023424465 0.025585633 0.0655639 -0.060104672 -0.054315917 0.05201298 -0.0074215746 0.010738811
-0.010913698 0.025056096 -0.058026407 0.029372815 -0.019959496 -0.07408368 -0.0127889495 0.06123411
0.0137726655 0.052650567 -0.080424115 -0.05434963 0.008417883 0.017107995 -0.07919214 0.006502546
-0.016009554 0.039288603 -0.03273842 -0.060270876 -0.07022386 0.078132294 -0.021330293 0.021882571
0.05808936 -0.0762927 -0.04042443 -0.04162664 -0.075319186 -0.010242561 -0.037938368 -0.07342158

conv2.bias f4 [16]
00000000: ad14 7c3c fd40 22bd 5445 84bd 9f64 d6bc
00000010: 7825 81bc 5222 0bbd ed53 213d 8da5 c03b
00000020: aa67 97bd 45ab 8dbd 987a 29bd 4cdb fc3c
00000030: 11e3 113d 00ab b43a dd34 7a3d 150b 8c3d
0.015385789 -0.03961276 -0.06458536 -0.026171027 -0.015764937 -0.033968277 0.03938668 0.00587911
-0.07392819 -0.06917433 -0.04137668 0.030866288 0.035616938 0.0013783872 0.06108557 0.06838051

fc1.weight f4 [120, 256]
00000000: 1fd0 4e3d 0c45 dcbc 2936 f3bc b7a8 b4bb
00000010: dfec c9bc 09bf 1bbd db1e f3b8 2296 693c
00000020: 5a2b 603d a0e1 e6bc 0fcf 01b9 33e4 13bd
00000030: 54b1 aa3c 0d3a debc b09d 7c3d 03c4 3ebd
00000040: c064 123b e2b5 5bbd 00c5 7e3d f69a 0cbd
00000050: ce13 243d 28e8 843c b053 0cbc c06e 91ba
00000060: 90f4 513c 6d0b a1bb 9817 7bbd 3ec5 33bd
00000070: 100e 1a3c 8849 3ebc f044 1a3c 74f8 edbc
00000080: f22e 423d f84a 313c 3c2c 7dbd 2c89 23bd
00000090: e836 d43c 9054 f2bc 2ed2 74bd 8027 03ba
000000a0: 428c 26bd c8af 543d d664 063d c4c3 42bd
000000b0: 00e0 23bb f846 f83c 9cd4 e2bc 30c4 40bc
000000c0: 3487 8f3c 7010 bc3c c5b1 e03c 69dc ab3a
000000d0: 9a35 433d 0581 27bd 6527 71bc 0182 3ebc
000000e0: 7251 aa3c 37e7 263d 5ccf 643d 9f96 793d
000000f0: b1fc 2a3d 512c 1fbd 7d50 6abd b9d2 12bd
00000100: a0bc a73c 2007 eebc 90a9 b4bc d4e5 19bd
00000110: 2707 1ebd e600 733d 4025 abbb 40a5 b7ba
00000120: 38f3 6cbc dc23 6b3d 90c1 c7bb 6a13 49bd
00000130: 701a e2bc 6037 0c3c ac99 e3bc a6bf 7a3d
00000140: b866 6fbd 19a6 edba b42a 3d3d 8f63 57bd
00000150: e463 373c 92b4 973c 8c0a 36bd 21bc cb3c
00000160: f0e0 5ebd 5baf 3bbd 9f13 f2bc f6bc 463c
00000170: e2e6 08bd da71 5d3d fd31 633d cf39 163d
00000180: 940f 223d b59e 2d3d 3cec 32bd 1df5 5cbd
00000190: 963d bf3c 67e4 c63c 0b7c 78bd a434 99bc
000001a0: f903 003d 7f03 c9bc 098b 23bd 1666 023d
000001b0: 3e3b 60bc 5fbc dcbc 3967 433d 68bf 623d
000001c0: 8711 71bc e6bf f5bc 8d62 03bd 6a4e 0f3d
000001d0: 7e0e 2bbd 8112 733d d0f5 683d 484b fd3c
000001e0: e43e 423c b38a 83bb d27d d83c fb2d 9d3c
000001f0: bd4e 893c 3a4f 023d 16c7 78bd 68f3 fabc
00000200: 46c3 52bc 9d0e f3bc 5b21 313d b7c3 45bd
00000210: 66d3 363d fbe1 e43c cade a03c ac2b 6cbd
00000220: 07c0 823c ad06 a33b 10d8 27bc ef2e 77bc
00000230: ff93 783d ddd9 283c 6ac9 3c3d 6d25 44bd
00000240: d589 59bb 3c0f 6cbd b51c 3c3d 3d24 4c3d
00000250: a6c2 84bb 2bcd b63b ae79 c0bb 4324 0d3d
00000260: da94 9bbb 290b 25b9 cf79 cd3c b2e0 fe3c
00000270: f0b6 643c cf72 9abc 21ed de3b de6f 0f3d
00000280: 9459 693c 2201 b0bc 724e 693d 2ba4 70ba
00000290: 472d 40bd 37b3 893c 67b6 ea3c d90a c93c
000002a0: fae7 483d 7e47 e53c 22f3 e63b 2309 aebc
000002b0: 1b08 293d 2bfe 53bd 4070 1b3d a7e2 e33c
000002c0: df9c 18bd a1d5 30bd 845d 003d e262 aebc
000002d0: 7a2c 043d c51c 44bd 84e2 19bd 593c b2bc
000002e0: af0a 38bd 12f5 5a3d 8e4d 653d a856 313d
000002f0: 77c4 dabc 916d 473b 49fb 053d 75b4 a83c
00000300: ea27 65bc 9203 d9bb b9db f3bc 3021 823a
00000310: 2b1f 0cbd b0ab 763d b3ba adbc 7819 013d
00000320: a955 2d3c 5627 cfb9 ebdb 1f3c 2c8b 883b
00000330: eab5 3bbd cf6f 4f3d fbdf a1ba 36b2 373c
00000340: e982 583d 85c3 453b a8c1 76bd 48fe 01bd
00000350: 7698 78bd 2ac8 f9bc 90de 33bc fc95 00bd
00000360: e02d 7dbd 6e27 0a3d 00f3 03bd 280e ed3c
00000370: 8ecf 6b3d 8029 683d c0cc ddba 447a 7ebd
00000380: 342b 85ba 28f2 9bbc 95d9 f8bc 618e 303d
00000390: 962a d4bb b526 54bd c5f0 c6bc 1f34 b2bc
000003a0: 598e 96bc 6877 cbbc 58d1 453d cb12 b43c
000003b0: f2ed 3c3c e6e6 e73c 8d45 5bbd 01eb 7b3d
000003c0: be86 4d3d 91dd 80bc 1bc2 0bbd 6c3d 05bd
000003d0: e5bf 40bc 4a3f 123d 8ae9 563d 1bcc 493c
000003e0: fb36 683d df06 d13c ce4a abbb dfd5 d339
000003f0: 60b0 a0bc 67f1 4a3d bf92 23bd e324 e2bc
0.05049145 -0.026888393 -0.029688912 -0.0055132764 -0.024649082 -0.038023982 -0.0001159289 0.014256986
0.054728843 -0.028183758 -0.00012379534 -0.0361063 0.02083651 -0.02712729 0.06167382 -0.04657365
0.0022337884 -0.053640254 0.062199593 -0.03432747 0.04005795 0.016223982 -0.0085648745 -0.0011095628
0.012814656 -0.004914692 -0.061301798 -0.043889277 0.009402767 -0.011614211 0.00941585 -0.029049136
0.04740805 0.010821097 -0.061809763 -0.03992574 0.025905088 -0.029581338 -0.059770755 -0.00050031394
-0.040661104 0.05192545 0.03281101 -0.047549978 -0.002500534 0.030307278 -0.02768927 -0.011765525
0.017520525 0.022957057 0.027428517 0.0013111952 0.04765854 -0.040894527 -0.014718865 -0.011627675
0.02079079 0.040747847 0.055861816 0.06093466 0.04174489 -0.038860623 -0.057205666 -0.035845492
0.020475686 -0.029056132 -0.02205351 -0.037572697 -0.03858104 0.05932703 -0.0052229464 -0.001401104
-0.014462285 0.057407245 -0.0060960725 -0.04909078 -0.027600497 0.008558124 -0.027783237 0.061217926
-0.05844757 -0.0018131166 0.046183303 -0.05258518 0.011193249 0.01851872 -0.044443652 0.02486998
-0.054413736 -0.04582153 -0.029550372 0.012130013 -0.033423312 0.054063655 0.055467594 0.036676224
0.039565638 0.042387683 -0.043682322 -0.053944696 0.023344796 0.024278833 -0.06066517 -0.018701859
0.03125379 -0.0245378 -0.039927516 0.031835638 -0.013685999 -0.026945291 0.047705863 0.05535832
-0.0147136515 -0.02999873 -0.032076407 0.03498689 -0.041761868 0.05934382 0.05687505 0.030919686
0.011855815 -0.004014337 0.026427183 0.019186964 0.016761178 0.031813838 -0.06073674 -0.030633643
-0.01286394 -0.029670054 0.0432447 -0.04828235 0.0446352 0.027939787 0.019637484 -0.057658836
0.015960706 0.004975161 -0.010244384 -0.015086873 0.060688015 0.010305849 0.04609052 -0.047887255
-0.0033193727 -0.057631716 0.045925815 0.049839247 -0.004051524 0.005578657 -0.0058738803 0.03445841
-0.004747969 -0.00015739784 0.025082497 0.031113002 0.013959631 -0.018853573 0.0068031703 0.035018794
0.0142425485 -0.021484915 0.056959577 -0.00091797364 -0.04691818 0.01680909 0.02865143 0.024541305
0.049049355 0.027988192 0.0070480267 -0.021244591 0.041267496 -0.051756065 0.037948847 0.027818037
-0.03725898 -0.043172482 0.031339183 -0.021287385 0.03226898 -0.047879 -0.037569538 -0.021757292
-0.044932064 0.053456374 0.055982165 0.043295532 -0.02670501 0.0030430297 0.032710347 0.020593861
-0.013986567 -0.00662274 -0.029767858 0.0009928104 -0.03420941 0.060222328 -0.02120719 0.03151843
0.010579505 -0.00039511424 0.009757022 0.004166981 -0.045827784 0.05064374 -0.0012350077 0.011211922
0.05285922 0.0030176353 -0.06024328 -0.031736642 -0.060692273 -0.030490953 -0.010978356 -0.031393036
-0.061811328 0.03372901 -0.032214165 0.028937414 0.057570986 0.056680202 -0.0016921982 -0.06212832
-0.001015997 -0.019036368 -0.030377189 0.043104533 -0.006474803 -0.051794726 -0.02428473 -0.021753369
-0.018378424 -0.02483721 0.04829535 0.021981617 0.01153134 0.028308343 -0.053533126 0.061503414
0.05017733 -0.015730651 -0.03412066 -0.03252928 -0.011764501 0.03570489 0.052468814 0.012316729
0.05669306 0.025515972 -0.0052274233 0.00040404403 -0.019615352 0.049546625 -0.03993487 -0.02760548

fc1.bias f4 [120]
00000000: a918 7abd b10f 4f3d bd1b 2fbd eac7 d9bb
00000010: aaf5 0ebd 3897 7d3c 0467 543c 42ab 903c
00000020: c142 f83c 073e 733d efa0 b03c bff8 6ebd
00000030: 621b 783d 5cc6 2bbd 42a2 c93a 5e29 0dbd
00000040: b037 2dbd 2dc6 3c3d bce8 313d 38f9 79bd
00000050: 907d 833d bda0 cb3c 1ad5 573d b867 2dbd
00000060: c1e0 b4bc 706d 373d 3d8f 163d 4e36 0d3d
00000070: e42e 6a3d a068 78bc 1c56 f8bc 1626 16bd
00000080: 4552 003d 2a1e 0c3d 4765 2fbd a198 d3bb
00000090: c692 1abd 3e9b edbc 8312 403c 6ed2 62bd
000000a0: 707e c7bc 86c0 71bd 2581 a8bb f29d 373c
000000b0: 43d9 d83b 635c 43bc 7eea 54bb e5bf 2c3d
000000c0: ee0a 1c3c 7479 52bd 2491 f13c 3bf8 b5bc
000000d0: edee 21bd 5808 3ebc 5024 dbbc f18a a43c
000000e0: 8892 58bd 41e9 213d 11dd 923c e8f9 1f3b
000000f0: 1a45 fc3c cdcc e2bc c043 d6bb cab1 1f3d
00000100: 176b 10bd c03e eebb 6ea5 a0bc 0f5c cf3c
00000110: 25dd 12bc 07c8 aabc a2c5 4e3d e429 2cbc
00000120: e18e db3c 71f5 9f3b 1336 9abc 30b8 6abc
00000130: 6059 2f3b d142 f93b 5b71 1fbd b741 4dbd
00000140: 1de2 8e3c 7161 cabb 665d c2bc 4abe f7bc
00000150: f7be 1f3c b87d 04bc 184b 213d d0de 7c3c
00000160: 0426 5b3d 2e8a 283d 7302 9ebc 4593 163d
00000170: ca24 7cbd 007a 0ebb 8bf6 44bd bb3e 63bb
00000180: 6845 b93c 406e 57bd 346a 533d 98dd 4abd
00000190: d040 c1bc c7d8 afbb 3068 fbbc 8ee6 423d
000001a0: a271 31bc a8a2 04bd 07fe 85bc fc11 0c3d
000001b0: 3e60 6f3d 987b 763c 02e1 02bd 3414 373c
000001c0: d95f 293d 8ab7 57bd 14fd 55bd 5bd5 423d
000001d0: e7cc f6bc 89a7 0dbd 04f8 6d3d 4086 55bd
-0.061058674 0.050552074 -0.042751063 -0.006646146 -0.034902252 0.015477948 0.012964014 0.017659787
0.030305268 0.059385326 0.021561114 -0.05834269 0.06057299 -0.041937217 0.001538344 -0.03446328
-0.042289436 0.046087433 0.043434843 -0.06102869 0.064204335 0.02485692 0.052693464 -0.042335242
-0.022079827 0.044782102 0.036757696 0.034475617 0.057173625 -0.015161663 -0.030314498 -0.036657415
0.03132846 0.034208454 -0.042821195 -0.006457404 -0.03773763 -0.02900469 0.011723164 -0.055376463
-0.024352282 -0.059021495 -0.0051423484 0.011207091 0.0066176965 -0.011923882 -0.00324884 0.042175192
0.00952409 -0.051385358 0.029488154 -0.022213092 -0.039534498 -0.011598669 -0.026750714 0.020085784
-0.052874118 0.03952909 0.017927678 0.002441043 0.030794669 -0.027685547 -0.006538838 0.038987912
-0.03525838 -0.007270664 -0.019610133 0.025312452 -0.008963858 -0.020847334 0.050481446 -0.010508034
0.026801528 0.004881554 -0.018824613 -0.01432614 0.0026756153 0.007606842 -0.038926464 -0.0501115
0.017441804 -0.0061761667 -0.023726176 -0.030242104 0.009750119 -0.008086614 0.039378256 0.015433982
0.05350305 0.041147403 -0.019288277 0.03676154 -0.061558522 -0.0021740198 -0.048086684 -0.0034674841
0.022616103 -0.052595377 0.051614955 -0.049527735 -0.023590475 -0.005366418 -0.030689329 0.047583155
-0.010830315 -0.032381684 -0.016356481 0.03419684 0.058441393 0.0150441155 -0.031952865 0.01117425
0.041351173 -0.05266527 -0.052243307 0.047566753 -0.030127002 -0.034583602 0.058097854 -0.052129984

fc2.weight f4 [84, 120]
00000000: e385 69bd 2866 963c 94d9 e5bc 424d 5cbd
00000010: ace7 583d 44ae 523d e113 81bd a4f7 c4bc
00000020: 843d 80bd d01b 543d e8e7 1cbd c82d be3c
00000030: b6ac 79bd 6070 dcbb fd4a babd aa64 87bd
00000040: 4c0f 5f3d 06ff 803d 20b2 a73b ae52 843d
00000050: 287e 50bc 5410 a63d 3c39 a73c 905b b33d
00000060: 6050 223d 118d b4bd 2cda 9fbd 5044 1abc
00000070: c054 953b 4c80 a43d 6ed1 96bd 5814 4cbd
00000080: 8c52 1a3d ccd5 273d db96 93bd 401f fdbc
00000090: 6b4b b0bd ce47 9b3d 92c8 1bbd b7cf 8abd
000000a0: 90c7 913c 38bd f03c 3c15 a83d 400e 033c
000000b0: 605a 19bc ba91 5dbd d851 6dbc cedb acbd
000000c0: fd74 87bd b423 b3bd 5c2e 023d 1e70 adbd
000000d0: 7412 d03c 807e acbb 4801 07bc 5ee7 a8bd
000000e0: 106b ecbb 4063 a5ba 5f51 8dbd cc1d 003d
000000f0: 1ce6 9d3c 857e 47bd e807 1c3d 9497 d5bc
00000100: eee2 92bd 2481 c83c f039 313d 2a53 98bd
00000110: 2447 af3d 602f ad3c d846 99bc 8242 8a3d
00000120: 496a 84bd 987b 3abc 08f4 833d 83e1 abbd
00000130: 30ff d53c c0a0 923c 76f5 31bd 0637 8f3d
00000140: a09a 21bc 40c7 393d 80ca 203d 443d cd3c
00000150: 4168 2abd 6367 75bd 94f8 66bd 3b37 42bd
00000160: f601 883d ee0a 87bd a0a4 4a3d f391 abbd
00000170: 3bd8 60bd 18a9 3dbd 10ed 5d3d 02e9 85bd
00000180: c250 a83d b2a5 8ebd 8fc7 84bd 2e2c 803d
00000190: 7832 a6bc 30d8 52bd 70a9 fc3b e020 ba3d
000001a0: 5665 9cbd 3427 6f3d 389c e5bc 2426 8a3d
000001b0: f8f7 c8bc ac21 733d 9e69 b5bd 7ef5 b5bd
000001c0: e09a 8ebb 0eca ac3d bc6f 8e3d bf4f 40bd
000001d0: 3cc3 953d 5c14 86bc 5829 ac3c 786c 36bc
000001e0: 9059 023d c8d0 df3c a0f9 b13d 502c 173d
000001f0: c2f9 67bd 07bc 97bd 3755 5dbd 60b7 b03c
00000200: 2095 cd3b 84af 413d e81b 41bd 84a1 2b3d
00000210: 3dee b6bd a4bb af3d 6c99 723d 3e01 8f3d
00000220: 7dfc 45bd 6cdc 93bc 64cf 633d 70bd de3c
00000230: 045a 52bd 401f 893a f245 05bd 78f5 21bd
00000240: a853 cf3c b0fb 02bd ced0 09bd 4eb9 74bd
00000250: 18f6 9c3c f0e3 d5bb bceb 633d 14a5 dcbc
00000260: 30aa 83bd 506c bcbb 057d aabd 6026 cabb
00000270: 1966 59bd a0a0 bdbc 60b2 e23c 704e f6bc
00000280: a0a6 843b 00d9 cdb9 884c 573d fec7 b3bd
00000290: ec8a da3c e03d 333c 4c77 9f3c 44ef 8ebd
000002a0: 10e3 733d 2eb7 aa3d e0f3 8b3b 3864 3f3d
000002b0: d689 a8bd c0fa b83c d487 f93c 183c 2ebd
000002c0: b06f b53d 2205 80bd 60c1 b8bb 68a3 4a3c
000002d0: c428 d1bc 8047 893c a006 363c b3ba 72bd
000002e0: 3cbe 4e3d 1cde de3c 60af 733d 5026 973d
000002f0: 9208 b9bd ba68 97bd 132f a7bd 24f1 123d
00000300: 804c dd3b 8287 853d c8dc 0c3d 9c45 d3bc
00000310: 74c1 9b3c f043 83bd cc6e 593d 3844 d43c
00000320: 7aa6 873d 23fd 82bd a809 07bd f862 b8bd
00000330: 545b 9fbc f0e0 3f3c cd7e 5cbd 1465 573d
00000340: a8de d63c 6c08 91bc 4066 ab3b 37cb 89bd
00000350: 71d1 19bd 6c4e 86bd 0829 1abd b88c 493d
00000360: e0cc 3abc 7847 493d 68f5 643d 7e32 833d
00000370: 3224 02bd 4ce0 2abd d0d0 d83c 91ea 78bd
00000380: 7295 9f3d 733d 85bd 68b6 843d 5057 803b
00000390: 7cc5 4a3d 4c62 613d de79 61bd c8bc 25bd
000003a0: 0175 8cbd f471 0c3d e0e8 a3bd 4783 56bd
000003b0: 4e9c 9f3d 1076 e13c 7828 1b3d d47d 8fbd
000003c0: 00e7 603c c81c ad3d 3503 5ebd 561b ba3d
000003d0: 94f5 653d b2e7 85bd a8eb 88bd 00db 7bba
000003e0: c5ab 42bd 9d5b b6bd f40e a4bc 0c4d 7f3d
000003f0: 4cce 88bc 80a4 a53b 1495 83bc a8eb 1e3c
-0.05701245 0.018359259 -0.02805785 -0.053784616 0.052955315 0.051435724 -0.0630262 -0.024043866
-0.06261733 0.051784337 -0.0383071 0.02321519 -0.060955726 -0.0067272633 -0.09096334 -0.06610997
0.054457948 0.06298642 0.0051176697 0.064610824 -0.0127253905 0.08108583 0.020413034 0.087576985
0.039627433 -0.08815969 -0.07805285 -0.009415701 0.004557222 0.08032283 -0.07364164 -0.04982409
0.03767638 0.040975377 -0.07206508 -0.03089869 -0.08608135 0.07582055 -0.038033076 -0.067779
0.017795354 0.029387102 0.08207175 0.007999003 -0.009359926 -0.054094054 -0.014484845 -0.08440362
-0.066141106 -0.08747044 0.031782493 -0.0846865 0.025399424 -0.0052641034 -0.008240052 -0.08247255
-0.0072149113 -0.001261808 -0.06900286 0.031278417 0.019274764 -0.048704643 0.038093477 -0.026073255
-0.0717219 0.024475642 0.043268144 -0.07437737 0.08558491 0.021140754 -0.018710539 0.067509666
-0.06465585 -0.011382006 0.0644303 -0.08392622 0.02612266 0.017898917 -0.04344698 0.06992917
-0.009863526 0.045356035 0.03925562 0.025053628 -0.04160333 -0.05991305 -0.056389406 -0.047415953
0.06640999 -0.065938815 0.049473405 -0.08377447 -0.054893713 -0.04630384 0.05418116 -0.06538583
0.08218528 -0.069651976 -0.06483375 0.062584266 -0.020287737 -0.051475704 0.007710628 0.09088302
-0.07636516 0.058386996 -0.028028592 0.06745556 -0.024532303 0.059358284 -0.088580355 -0.088847145
-0.0043519586 0.084369764 0.069549054 -0.04695105 0.073126286 -0.01636713 0.021015808 -0.011134259
0.031823695 0.027321234 0.0869019 0.036907494 -0.056634672 -0.0740891 -0.054036345 0.021571815
0.0062738806 0.047286525 -0.047145754 0.04190208 -0.08932159 0.085807115 0.059228346 0.06982659
-0.048336495 -0.018049441 0.055617705 0.02718994 -0.051355377 0.0010461584 -0.03253741 -0.039540738
0.025308445 -0.03197831 -0.033646397 -0.059747033 0.019160315 -0.0065274164 0.055644736 -0.026934184
-0.06428945 -0.0057502165 -0.08324627 -0.0061691254 -0.053075884 -0.023147881 0.027672946 -0.030066699
0.0040481836 -0.00039262325 0.05256322 -0.0877838 0.026677571 0.010940045 0.019466065 -0.0697923
0.059542716 0.0833572 0.0042710155 0.046726435 -0.08229415 0.022580504 0.030460276 -0.04253778
0.08859193 -0.06250979 -0.0056382865 0.012368061 -0.025532134 0.016757727 0.011109978 -0.05926008
0.05047439 0.02720552 0.059493423 0.073803544 -0.09034838 -0.07393022 -0.081632756 0.0358745
0.0067535043 0.06519987 0.03439024 -0.025790028 0.019013144 -0.064094424 0.05308418 0.025911435
0.0662355 -0.06395938 -0.032968193 -0.09003252 -0.019452728 0.011711344 -0.053831864 0.05258663
0.026229218 -0.017704211 0.005230695 -0.06728213 -0.037553255 -0.065579265 -0.037636787 0.049206465
-0.011401385 0.049140424 0.0558981 0.06406115 -0.0317728 -0.041717812 0.026466757 -0.060770575
0.07792176 -0.06505861 0.06480104 0.0039166585 0.049504742 0.055025384 -0.055047862 -0.04046324
-0.06858254 0.03428836 -0.08003402 -0.05237129 0.07793485 0.027522117 0.03788039 -0.07006422
0.01372695 0.08452755 -0.054202277 0.09087245 0.056142405 -0.06538333 -0.06685573 -0.00096075237
-0.047527093 -0.089041926 -0.020026661 0.062329337 -0.016699933 0.0050550103 -0.016062297 0.0096997395

fc2.bias f4 [84]
00000000: f27d b5bd 0903 61bd 1883 e2bc 384e 923d
00000010: 98cd e3bc 4268 fb3c ee19 af3d ac62 afbd
00000020: 0e37 1d3d 45d0 ad3d a123 1e3c 792b 243b
00000030: 8c60 983d 8e54 b0bd 4485 953d 1fd0 963d
00000040: 1844 71bd c40a e5bb 2499 30bc af23 0c3d
00000050: 4c7f 8ebc 20c2 2abd 2b8d c7bc 6ea2 683d
00000060: 7c9b 7fbd 97b8 213c fea7 66bd 6b23 6e3c
00000070: 6106 a4bd c020 9e3a 54e3 6a3b 86f8 90bd
00000080: 34ca 963d b0cf 9ebd 023e 0abd c53c bb3b
00000090: 6a4d a53c 7638 613d 21b1 06bc 7b04 c03c
000000a0: e074 71bd 60fb 0ebd f4ff bdbc f2a0 80bc
000000b0: 3133 a6bd 454b babd f113 9dbd 2652 b7bc
000000c0: 9298 91bd 5efc a4bc 934d 753d 454c 653c
000000d0: f815 98bd 0fe9 613d f80d 49bd 5f62 ba3d
000000e0: 3f00 a8bd e796 a53d d579 a73c 4136 0d3d
000000f0: 40d5 b1bd 60bd 3a3d e22d 333d 319b 1b3d
00000100: 68b2 a8bd cb9c 283d e9de 333d a8cd 6ebd
00000110: 12e6 9a3d 29cf 043d 6c51 b9bc 370a f1bc
00000120: f3bd ba3d f8e7 d73c b5fc 3b3d 726f 4b3d
00000130: 26a5 503c d73c 403b f479 a4bd d4b3 503d
00000140: 34cd 8a3b 991f 863c c68a b03d b5ed 1d3c
-0.08861913 -0.054934535 -0.027650401 0.07143825 -0.027807996 0.030689362 0.085498676 -0.08563742
0.038382582 0.0848699 0.009652049 0.0025050326 0.0744029 -0.086098775 0.07300809 0.07363915
-0.05890283 -0.0069898088 -0.010778699 0.034213718 -0.017394684 -0.04168904 -0.024359306 0.05679553
-0.06240414 0.00987067 -0.056312554 0.0145348115 -0.08009029 0.0012064204 0.0035841065 -0.07078652
0.07362786 -0.07754457 -0.03375054 0.0057140314 0.020178515 0.054985486 -0.008220942 0.023439636
-0.05894935 -0.0349077 -0.023193337 -0.015701745 -0.08115233 -0.09096388 -0.07669819 -0.022378039
-0.071091786 -0.02013987 0.059888434 0.013995235 -0.07426065 0.055153903 -0.049085587 0.09100794
-0.08203172 0.08085423 0.020443836 0.03447557 -0.08683252 0.04559076 0.04374493 0.0379898
-0.08237153 0.041165154 0.043913756 -0.058301598 0.07563414 0.032424126 -0.022621833 -0.029423816
0.09118261 0.026355729 0.045895297 0.04966683 0.012734687 0.0029333138 -0.08031073 0.050952747
0.004235888 0.016372489 0.08620219 0.009639193

fc3.weight f4 [10, 84]
00000000: 551c 993d 4304 9d3d 6a70 43bd 6963 69bd
00000010: 4290 77bd d00e 1f3c 0399 da3b c01a 0dbb
00000020: 299b 523d 6314 b63d 5d32 4b3d d873 55bd
00000030: 0dbd 85bc 0351 803d 1c9b 703d a5cc 84bd
00000040: 6010 97bd 6a18 b0bd 76f8 8f3c 5c41 283d
00000050: 00ca 76b9 443f 07bd 9423 91b9 d1fd 70bd
00000060: 72e8 c83c a418 373d aab8 c3bd 0417 9a3d
00000070: 6c21 76bd 2840 92bc 6ff6 363d 492c 1c3d
00000080: e047 763d 49b5 48bd 64d0 8dbc 0222 89bd
00000090: 2c02 b33d 3a1b 993c caef fabc 6d2e 10bd
000000a0: 0064 f239 3c6b bb3c 1423 ed3c 1599 8ebd
000000b0: 72ba 813d 4a8c 203d a0c7 86bc ea43 01bd
000000c0: af34 ddbd 63f2 a43d ba35 1bbb 35b5 ce3d
000000d0: 410d ac3d 82d7 7c3d e853 95bd 2900 d13d
000000e0: d8d4 5a3c 6119 e7bc 7e68 d43c a59c 2c3b
000000f0: a423 91bc 5d40 c23d b19f 8ebd c8d1 2d3d
00000100: dc80 bc3c a02d ddbd 4e39 4a3c 2eb5 87bc
00000110: 7d2a 4ebc adf5 853c 9ceb 17bd 3883 96bd
00000120: 22a1 28bd 093c a83c bfd6 f23c 4b60 95bb
00000130: b189 c13c b85b 2d3d 5083 a6bc 38b1 8bbd
00000140: 40dd d4bb 745b 16bc 3aa5 de3c 34f8 d0bc
00000150: f226 69bd 0561 a33d 81eb 8d3d 0ead 5cbd
00000160: b777 a63d d563 92bd 22f1 2cbd a0b2 fabc
00000170: a3b0 993d f8e7 ae3d b8ee c03d acbd 86bc
00000180: 4885 993d d421 a83c 3b91 c7bd 968b 64bd
00000190: 7d32 b53d 7e4f c93c 771d 2bbd eef3 b93d
000001a0: 00d6 90bc 357b 903d 676f 17bd e66f d4bd
000001b0: 5a1a 703d 0830 a73d 405f 3cbc 24f6 eebc
000001c0: d364 8c3d 0d8c 903d b709 193c 6cb5 c7bc
000001d0: d2bc 77bb a918 5ebd 9d98 a03d 3a84 463d
000001e0: 0ade 9ebd e783 d93d 0c9b ba3d 4ff2 85bd
000001f0: e24d 27bd 4281 513d 2806 ddbc cb6e aabd
00000200: 6660 943d 90ab 81bd 8365 ad3d aa38 58bd
00000210: 6f39 9c3d 965e 763d b9f6 9dbd d89d d2bc
00000220: 5e37 d3bd b2c3 d73d 63ae 903d efd4 0e3d
00000230: 4c4d a53c 0132 a73d 2a28 77bd 044a a5bc
00000240: c074 9dbd 4e0b b93c b9d8 80bd 2e2d cd3c
00000250: ce77 28bd 3aa2 a83d cd2c 7d3d 118d 7c3a
00000260: a6b7 2fbd 1eb6 cc3d 04a1 eb3c 0fe7 b33b
00000270: 8574 8a3d b434 9f3c 1b31 43bd 4d23 5bbd
00000280: 068d 98bd 709e 3dbd 2465 a5bc ed0f c43d
00000290: c4aa 11bd 10a4 8f3d 9052 9e3d 3c81 94bc
000002a0: c43e c63c 5a45 8cbd 2301 69bd c973 303d
000002b0: 346a ddbc d76c d63c 4745 d73d 48f4 d3bc
000002c0: e10b 4dbd 599f 803d f73f b6bc 053c 94bb
000002d0: 62ae 3a3d 0ce3 c13c 401a 25bd cd9e b83d
000002e0: 7344 b13d 72c6 11bd 6bc9 923d b650 1abd
000002f0: d06f b0bb 4255 7c3d 7480 993c 2f94 14bd
00000300: 81ab dabd 7275 273c 8292 623d 54c8 523d
00000310: c19d b73d a070 a53b 902a b63d 2055 a53c
00000320: ce55 5b3d 17aa ddbd 5082 16bc a3c6 a13c
00000330: ded3 9bbd 24e6 19bd d910 dd3c a4ea ba3d
00000340: 4074 20bb 7c9e fa3c c804 1fbc 8435 77bd
00000350: e2f3 96bd 6069 2bbb 400e b5ba 7336 b43d
00000360: fde7 a5bd ef17 ae3d d8c3 7bbd 0dfc 9b3d
00000370: f780 b03d 1876 ac3d 1f72 9b3d b9d0 b8bd
00000380: e079 2f3b a9af 073d 1c7c 9f3d a71f 923d
00000390: 1a95 6e3d 6f45 debd 2f52 5cbd e68b 473d
000003a0: e717 ce3d b7f7 73bd 2966 28bd 975f 713d
000003b0: 37bd d2bd 0430 943c f5e7 923d 0ee0 d33d
000003c0: e37b cfbd 5c1e efbc 1717 21bd a6d2 bf3c
000003d0: 89c2 803d 6689 063c 848b d63c 473e d63d
000003e0: 9f8a 93bc 2170 1e3d 9a38 92bd ba5c a3bd
000003f0: a9fb 74bd a8aa 55bc f541 843d f29d 53bd
0.07476107 0.076668285 -0.04771463 -0.05697957 -0.06044031 0.009708121 0.0066710724 -0.0021530837
0.051417504 0.08890607 0.049608577 -0.05211243 -0.016325498 0.06265452 0.058741674 -0.06484345
-0.0737617 -0.085984066 0.01757453 0.041077957 -0.00023535639 -0.03301932 -0.00027683063 -0.05883581
0.024524901 0.044701234 -0.09556706 0.07523921 -0.060090467 -0.017852858 0.04466861 0.03812817
0.06012714 -0.049001012 -0.017311282 -0.066959396 0.087406486 0.01868974 -0.030631918 -0.035200525
0.00046232343 0.022878282 0.02894739 -0.06962792 0.0633439 0.03919629 -0.01645261 -0.03155891
-0.10801064 0.08054044 -0.0023683147 0.10093156 0.084009655 0.06172896 -0.072913945 0.10205109
0.01335641 -0.028210344 0.025928732 0.0026338485 -0.01771719 0.094849326 -0.069640525 0.04243639
0.023010664 -0.10799718 0.012342764 -0.016565885 -0.012583372 0.016352499 -0.03708993 -0.07349247
-0.041169293 0.02053644 0.029643415 -0.004558598 0.023625227 0.042323798 -0.020326287 -0.06820911
-0.0064961016 -0.009177078 0.027178396 -0.025508977 -0.056921907 0.079774894 0.069296844 -0.053875975
0.081283025 -0.07147948 -0.04222215 -0.030602753 0.07504394 0.08540338 0.09420532 -0.016447864
0.074961245 0.020523943 -0.097444974 -0.055797182 0.088475205 0.024574038 -0.041776147 0.09079729
-0.017680168 0.0705475 -0.036971476 -0.103729054 0.05861888 0.08163458 -0.011497319 -0.029170103
0.06855168 0.070579626 0.009340695 -0.0243785 -0.0037801755 -0.054222737 0.07841609 0.048465945
-0.07757194 0.106208615 0.09111604 -0.06540357 -0.04084576 0.05114866 -0.026980475 -0.08321913
0.07244949 -0.06331551 0.084666274 -0.052788414 0.07628142 0.060148798 -0.07713074 -0.025710031
-0.10313295 0.10535373 0.070645116 0.034871038 0.02017846 0.08163834 -0.060341038 -0.020176895
-0.07688284 0.022588398 -0.062913366 0.025045957 -0.04112988 0.08234067 0.061810303 0.00096340576
-0.04289975 0.099956736 0.028763302 0.005490191 0.067605056 0.01943431 -0.047654252 -0.053500462
-0.07448773 -0.046293676 -0.02018983 0.0957335 -0.035563245 0.07013714 0.07730591 -0.01812803
0.02419985 -0.06849165 -0.05688585 0.04307917 -0.02702818 0.026174946 0.105112605 -0.025873318
-0.050060157 0.06280393 -0.022247298 -0.0045237564 0.04557646 0.023667835 -0.040308237 0.09014664
0.08655634 -0.035589643 0.07167324 -0.03767463 -0.005384423 0.061604746 0.018738009 -0.03627413
-0.10677243 0.010220872 0.055315502 0.05146058 0.08965636 0.0050488263 0.08894837 0.020182192
0.053548627 -0.10823458 -0.009186342 0.019748038 -0.0760877 -0.037572995 0.026985573 0.091267854
-0.0024483353 0.03059315 -0.00970573 -0.06035377 -0.07370736 -0.0026155338 -0.0013813451 0.08799448
-0.08100889 0.08500659 -0.061466068 0.07616434 0.08618348 0.08420962 0.07590126 -0.09024186
0.0026775524 0.033126507 0.07787344 0.071349435 0.058247663 -0.10853087 -0.053789314 0.048717402
0.10063153 -0.05956241 -0.041113053 0.058929052 -0.10289996 0.018089302 0.071731485 0.103454694
-0.101310514 -0.029189281 -0.03932866 0.023415875 0.06287105 0.008211469 0.026189573 0.10461097
-0.018010436 0.038681153 -0.07139702 -0.079766706 -0.059810314 -0.013041176 0.06457893 -0.0516643

fc3.bias f4 [10]
00000000: 96c1 a6bc 9042 aa3d a1d7 283d cd8e cabd
00000010: 5a0b f1bc 117b 2bbd 1387 2bbc 8fc7 44bd
00000020: d05a 953d c997 a43c
-0.02035598 0.08313477 0.041221265 -0.09890518 -0.029424358 -0.041865412 -0.010469216 -0.048041876
0.07292712 0.020091908
